(6000, 784) (6000, 784) (6000,) (6000,)
Training data shape :  (12000, 28, 28, 1) (12000,)
Total number of outputs :  2
Output classes :  [1 3]
(12000, 28, 28, 1) (12000,)
Original label: 1
After conversion to one-hot: [0. 1. 0. 0.]
(10800, 28, 28, 1) (1200, 28, 28, 1) (10800, 4) (1200, 4)
_________________________________________________________________
Layer (type)                 Output Shape              Param #   
=================================================================
conv2d_1 (Conv2D)            (None, 28, 28, 16)        272       
_________________________________________________________________
conv2d_2 (Conv2D)            (None, 28, 28, 32)        8224      
_________________________________________________________________
batch_normalization_1 (Batch (None, 28, 28, 32)        112       
_________________________________________________________________
leaky_re_lu_1 (LeakyReLU)    (None, 28, 28, 32)        0         
_________________________________________________________________
dropout_1 (Dropout)          (None, 28, 28, 32)        0         
_________________________________________________________________
average_pooling2d_1 (Average (None, 14, 14, 32)        0         
_________________________________________________________________
flatten_1 (Flatten)          (None, 6272)              0         
_________________________________________________________________
dense_1 (Dense)              (None, 128)               802944    
_________________________________________________________________
leaky_re_lu_2 (LeakyReLU)    (None, 128)               0         
_________________________________________________________________
dropout_2 (Dropout)          (None, 128)               0         
_________________________________________________________________
dense_2 (Dense)              (None, 4)                 516       
=================================================================
Total params: 812,068
Trainable params: 812,012
Non-trainable params: 56
_________________________________________________________________
Train on 10800 samples, validate on 4000 samples
Epoch 1/2000
 - 4s - loss: 0.7384 - acc: 0.5122 - val_loss: 0.6925 - val_acc: 0.5105

Testing loss: 0.692440796693166, acc: 0.5208333333333334
…
